model.pth (torch, 319936 bytes, 4 tensors)

l1.weight f4 [100, 784]
0	0xbb6e53e0	-0.0036365911
1	0x3cd4a9a2	0.025959793
2	0x3c6b4f40	0.014362156
3	0x3cefa946	0.02925552
4	0x3c8a9052	0.01691452
5	0xbbbb5394	-0.0057167504
6	0x3cfd8776	0.030948382
7	0xbd0d3805	-0.034477253
8	0xbcd1081a	-0.025516558
9	0x3d08bbfd	0.033382405
10	0x3cbe6aa8	0.023244217
11	0xb99f2a80	-0.00030358508
12	0xbda0f209	-0.078586645
13	0xbd1c8d23	-0.038220536
14	0xbcb700e0	-0.022339284
15	0x3c91795a	0.01775806
16	0xbc3492b2	-0.011021303
17	0x3cf810ee	0.03028151
18	0xbbe0a370	-0.006855421
19	0x3cf969be	0.03044593
20	0x3b1bc390	0.0023767687
21	0x3c524984	0.01283491
22	0x3bafb9d8	0.0053627305
23	0xbadeb7e0	-0.0016992055
24	0x3cb0bb12	0.021573577
25	0xbc6e72dc	-0.014553752
26	0xbd078316	-0.033083998
27	0xbc6ec238	-0.014572673
28	0x3ca52f82	0.020164255
29	0xba65ae40	-0.0008761622
30	0xbd0a3898	-0.03374538
31	0x3c587bf8	0.01321315
32	0xbc69cf06	-0.01427055
33	0xbca9f746	-0.020747792
34	0xbcdbc052	-0.026825104
35	0xbb36f459	-0.0027916639
36	0xbd51040c	-0.05102925
37	0xbdf90319	-0.12158794
38	0xbe82a520	-0.25516605
39	0x3d436c25	0.047710557
40	0x3c6d966e	0.014501197
41	0x3c0fa83f	0.00876814
42	0xbe857657	-0.2606685
43	0x3df9a39a	0.12189408
44	0x3e479780	0.19491386
45	0x3e3624be	0.17787454
46	0xbb3ab513	-0.0028489276
47	0xbc90f2c2	-0.017693881
48	0xbdefd98c	-0.11711416
49	0xbe161156	-0.1465505
50	0xbde109ca	-0.10988195
51	0xbdef9b39	-0.11699528
52	0xbca4f205	-0.020134935
53	0xbbf89478	-0.007586058
54	0x3d0520cb	0.032501977
55	0x3ce4bcee	0.02792212
56	0xbb8b1df8	-0.004245516
57	0xbcee3cc8	-0.029081717
58	0x3cd3b612	0.025843654
59	0x3c4d3278	0.01252424
60	0xbdf39eff	-0.118955605
61	0xbe226737	-0.15859686
62	0x3b488170	0.003059473
63	0xbdaec1ff	-0.085330956
64	0xbe8a5afd	-0.27022544
65	0xbcec2fd5	-0.028831402
66	0x3e63c8a7	0.22244512
67	0x3eaec7f9	0.34136942
68	0x3cb4f99d	0.022091681
69	0xbea13b2f	-0.31490466
70	0xbf360026	-0.71093976
71	0xbec93426	-0.392976
72	0xbe0bbb94	-0.13645774
73	0xbe292480	-0.1651783
74	0xbe081272	-0.13288286
75	0xbd2be91c	-0.041970357
76	0xbdb83e13	-0.08996215
77	0xbdc86146	-0.097841784
78	0xbdef3aab	-0.11681112
79	0xbe22b9aa	-0.15891138
80	0xbca8221e	-0.02052408
81	0x3ccb3252	0.024804268
82	0xbc16ef2e	-0.009212298
83	0x3bc231e8	0.0059263594
84	0x3cdd42d6	0.027009409
85	0xbc68a1b8	-0.014198713
86	0xbda310e0	-0.07962203
87	0xbe0ab040	-0.13543797
88	0xbc63a9fb	-0.013895507
89	0xbb61953b	-0.0034421224
90	0xbb4fdf8c	-0.0031718938
91	0xbda320aa	-0.079652146
92	0xbef1461d	-0.47123805
93	0xbf0f81be	-0.56057346
94	0xbf3b7024	-0.7321799
95	0xbe80cc76	-0.2515599
96	0xbe242046	-0.16027936
97	0xbe96ecb1	-0.29477456
98	0xbf35a912	-0.70961106
99	0xbf947528	-1.1598253
100	0xbf67046b	-0.90241116
101	0xbea132b4	-0.31483996
102	0xbe812a41	-0.2522755
103	0xbe1a2391	-0.1505263
104	0xbe65229f	-0.22376488
105	0xbe5bc7c6	-0.21462926
106	0xbe9c094c	-0.30475843
107	0xbe95b874	-0.2924229
108	0xbe0979f1	-0.13425423
109	0xbded6e97	-0.11593359
110	0xbd069fd4	-0.032867268
111	0xbcfc579c	-0.030803494
112	0x3c747ba4	0.014922056
113	0xbc2f540e	-0.010701193
114	0xbd7b1a83	-0.06130458
115	0xbe0d1742	-0.13778403
116	0xbe801ec3	-0.2502347
117	0xbe052651	-0.13002898
118	0x3e1ba41a	0.15199319
119	0x3e9f56cf	0.31120917
120	0x3e254288	0.16138661
121	0xbed49c91	-0.415257
122	0xbef206b4	-0.4727074
123	0xbeaa08a0	-0.33209705
124	0xbb1d2497	-0.0023978108
125	0x3ce35bd4	0.027753748
126	0xbe730a92	-0.23734501
127	0xbef78f3d	-0.4835147
128	0xbf66ca9a	-0.90152895
129	0xbf39f1ce	-0.7263459
130	0xbf0a56c5	-0.5403865
131	0xbec889b0	-0.39167547
132	0xbe863134	-0.26209414
133	0xbe90d6ca	-0.2828887
134	0xbe9d8a93	-0.30769786
135	0xbda5f990	-0.08104241
136	0xbd5be03d	-0.053680647
137	0x3c9c24cc	0.019060515
138	0x3d887163	0.06662252
139	0xbcd2905c	-0.025703602
140	0xbc297e8a	-0.010345111
141	0x3cd8ecd8	0.026480123
142	0xbdd0b341	-0.1019044
143	0x3e934322	0.28762156
144	0xbe2b6bbd	-0.16740318
145	0xbd383a0c	-0.044977233
146	0x3e8e8f7c	0.27843845
147	0x3ea4ac15	0.32162538
148	0x3e46015f	0.1933646
149	0xbe479cbc	-0.19493383
150	0xbe8d3dc0	-0.27586174
151	0x3e35e7eb	0.17764251
152	0x3e93a036	0.2883317
153	0x3f0dd19c	0.55397964
154	0x3ebf1192	0.37318093
155	0x3d8d855b	0.06910201
156	0xbed67dc3	-0.41892824
157	0xbf04341c	-0.5164201
158	0xbee35729	-0.44402435
159	0xbf0a3b35	-0.5399659
160	0xbee2bd74	-0.44285166
161	0xbe8d12c4	-0.2755338
162	0xbec0e10a	-0.3767169
163	0xbe4175cc	-0.18892592
164	0xbe06480c	-0.13113421
165	0xbe24f53e	-0.16109177
166	0xbdedeb7c	-0.11617181
167	0x3cc8857e	0.024477717
168	0x3c621634	0.013799239
169	0xbdd92a78	-0.106038034
170	0xbd362951	-0.044472996
171	0x3e8d720b	0.2762607
172	0x3d390ae6	0.04517641
173	0xb9293584	-0.00016137032
174	0x3e1ac7dc	0.15115303
175	0x3d945f82	0.07244779
176	0x3d827aa6	0.063710496
177	0xbd345e8a	-0.044035472
178	0x3e173c4a	0.14769092
179	0x3eccf175	0.40027967
180	0x3ef38827	0.47564813
181	0x3f3de48f	0.7417688
182	0x3f2f9328	0.6858392
183	0x3f0089a7	0.5021004
184	0x3dd431b1	0.103610404
185	0x3bc548c8	0.006020639
186	0xbd4fd6d1	-0.050741974
187	0xbed354f8	-0.41275764
188	0xbedb4bb0	-0.42831182
189	0xbed5f024	-0.41784775
190	0xbf281d19	-0.656694
191	0xbec7a5da	-0.38993722
192	0xbe7e7598	-0.24849546
193	0xbe30c73e	-0.17263505
194	0xbcad6cd7	-0.021170063
195	0x3e245592	0.16048267
196	0x3cf9f41b	0.030511906
197	0x3e876ff6	0.26452607
198	0x3d186451	0.037205044
199	0x3e858ef0	0.26085615
200	0xbe8dfc38	-0.2773149
201	0xbd5c25bb	-0.05374692
202	0x3e533291	0.20624758
203	0xbd9f8eef	-0.07790934
204	0x3c9b6842	0.018970612
205	0x3d99ee53	0.0751616
206	0x3e8c4e85	0.27403656
207	0x3e681c2a	0.22666994
208	0x3ef3f110	0.47644854
209	0x3f209e89	0.62741905
210	0x3f12ef27	0.5739617
211	0x3f11d116	0.56959665
212	0x3e3350d7	0.17511307
213	0x3e125798	0.14291227
214	0x3d353fed	0.044250418
215	0xbed29ec8	-0.41136765
216	0xbf094c3d	-0.53631955
217	0xbf0df509	-0.5545202
218	0xbf449828	-0.7679467
219	0xbf36d904	-0.7142489
220	0xbea1ef45	-0.3162786
221	0xbdd0aabd	-0.10188816
222	0xbdc12f81	-0.09432889
223	0x3e560564	0.20900494
224	0x3eca2b0b	0.39485964
225	0x3e724df7	0.23662554
226	0xbdd772a9	-0.105199166
227	0xbaa4931f	-0.0012556053
228	0xbe1769f4	-0.14786512
229	0xbde89565	-0.1135662
230	0x3e86c9d0	0.26325846
231	0x3d818856	0.06324832
232	0x3e723a3f	0.23655032
233	0x3e1c0183	0.15234952
234	0x3e9cf9cb	0.30659327
235	0x3e5f181e	0.21786544
236	0x3e5982ea	0.21241346
237	0x3da666b7	0.0812506
238	0x3e4a88f8	0.19778812
239	0x3e931e23	0.2873393
240	0x3e22900a	0.15875259
241	0x3e076e55	0.13225682
242	0x3e756c51	0.239671
243	0xbe315a9f	-0.17319725
244	0xbec6b4b6	-0.38809747
245	0xbf1e8c92	-0.61933243
246	0xbf311c3a	-0.69183695
247	0xbf1bce6d	-0.60861856
248	0xbed10f49	-0.40831974
249	0xbe9eefb5	-0.31042257
250	0xbd921a2a	-0.07133897
251	0x3e8780ce	0.26465458
252	0x3cfeb0b8	0.031090125
253	0x3e4c1e7b	0.19933502
254	0xbe6ae5c4	-0.22939211
255	0x3aa405ca	0.0012513932

l1.bias f4 [100]
0	0xbe234550	-0.1594441
1	0xbebb1afb	-0.36544022
2	0xbc912184	-0.017716177
3	0xbd8c76ce	-0.06858598
4	0xbd97b6a5	-0.074078836
5	0xbcb76147	-0.022385253
6	0xbd442dc3	-0.047895204
7	0xbda3dbad	-0.08000884
8	0x3e6e3c34	0.23265153
9	0x3db0b0d9	0.08627481
10	0xbd98a271	-0.07452858
11	0xbe53cd03	-0.20683675
12	0x3e1fe3e7	0.15614282
13	0xbd9a5a90	-0.07536805
14	0x3d029db3	0.031888675
15	0x3db6d81d	0.08927939
16	0xbd43cb22	-0.047801144
17	0x3d8fd281	0.07022572
18	0x3cf2212d	0.029556835
19	0x3db10263	0.08643033
20	0xbe2af506	-0.16695032
21	0xbd545d31	-0.051846687
22	0xbe8b4724	-0.27202713
23	0x3ec533d2	0.38516098
24	0xbdb47cf2	-0.08812894
25	0xbc4c46f9	-0.012468093
26	0xbe1a386c	-0.15060586
27	0xbdc4c623	-0.09608104
28	0x3a57e8a2	0.0008236264
29	0xbda73308	-0.0816403
30	0xbdaaf69e	-0.0834782
31	0x3e4ff053	0.2030652
32	0xbd94bfc1	-0.07263137
33	0xbe1c624e	-0.15271875
34	0x3ddf7b0c	0.10912141
35	0x3e40a923	0.1881452
36	0xbe2e7d31	-0.17039944
37	0xbd7d88ff	-0.061898228
38	0xbd92fa1c	-0.07176611
39	0x3d6f018b	0.05835108
40	0xbe028fb5	-0.12750132
41	0x3e2b1758	0.16708124
42	0xbe057337	-0.13032232
43	0xbd3e34ed	-0.046437193
44	0x3e3b96da	0.18319264
45	0xbdf56268	-0.1198166
46	0x3d8b4063	0.0679939
47	0x3e590dcc	0.2119667
48	0xbeb9bf9f	-0.36279008
49	0x3e369e3a	0.17833796
50	0xbecc7a59	-0.39937094
51	0xbd1c7109	-0.038193736
52	0xbd81633a	-0.06317754
53	0x3db8ebb4	0.09029332
54	0xbd3a0f0d	-0.04542451
55	0x3d7d2390	0.061801493
56	0x3bf34dcf	0.007425047
57	0xbc925178	-0.017861113
58	0x3e6197e1	0.22030593
59	0x3e7ea0b6	0.24865994
60	0xbde93f31	-0.11389006
61	0x3e821b94	0.25411665
62	0xbe853eb9	-0.26024416
63	0xbe19c126	-0.15015087
64	0xbd11d664	-0.03560485
65	0xbdd641b2	-0.10461749
66	0xbd400c20	-0.046886563
67	0xbd89fce2	-0.06737687
68	0xbbac4e5c	-0.0052583646
69	0xbe1d8acf	-0.15384983
70	0xbd580178	-0.052735776
71	0x3eb5d45d	0.35513583
72	0xbe1c67dd	-0.15273996
73	0xbe0c3156	-0.13690695
74	0x3e61c8d0	0.2204926
75	0xbd0009db	-0.0312594
76	0x3dadbfb1	0.08483828
77	0xbdbb4558	-0.09144086
78	0xbe38a0c2	-0.18030074
79	0x3ea8f762	0.33001238
80	0xbd6a18b6	-0.057152472
81	0xbd01b2b9	-0.031664584
82	0xbceec54c	-0.029146813
83	0xbe96ef1d	-0.29479304
84	0x3cb85d40	0.022505403
85	0xbd9e837c	-0.077399224
86	0x3e3df300	0.18549728
87	0x3d1b9dc5	0.037992258
88	0x3da7f2a1	0.08200575
89	0xbdafafa0	-0.0857842
90	0x3e4a562f	0.19759439
91	0xbd411223	-0.047136437
92	0xbd9ad44d	-0.075600244
93	0xbe86860b	-0.26274142
94	0xbd3eca9a	-0.046579935
95	0x3c99bb25	0.018765995
96	0x3e549cd0	0.20762944
97	0xbee925c9	-0.4553664
98	0xbced7182	-0.028984789
99	0xbd5268d9	-0.05136952

l2.weight f4 [10, 100]
0	0x3ecb0f5a	0.3966015
1	0x3ddd3e92	0.1080295
2	0xbf4f497e	-0.80971515
3	0x3e3bb9d9	0.18332614
4	0x3c9da563	0.019243902
5	0xbdd2b56f	-0.10288512
6	0xbc26befb	-0.010177369
7	0xbc88946b	-0.016672334
8	0xbe50a6d0	-0.20376134
9	0xbdd9e57e	-0.10639475
10	0xbd4d8b8b	-0.050181907
11	0x3e4e0a71	0.2012117
12	0xbf15b698	-0.5848174
13	0x3df8a070	0.12139976
14	0x3c9ed108	0.019386783
15	0xbd4f36a5	-0.050589222
16	0x3c59d5e0	0.013295621
17	0xbe462039	-0.1934823
18	0x3dd7b697	0.10532873
19	0xbea28fd0	-0.31750345
20	0xbde19293	-0.11014285
21	0xbe4aaec1	-0.19793226
22	0x3e655a88	0.22397816
23	0x3df06689	0.11738307
24	0xbd44fef8	-0.04809472
25	0xbe4484e8	-0.19191325
26	0xbd917a5c	-0.07103416
27	0xbe6cce5b	-0.23125593
28	0xbe191541	-0.14949514
29	0xbf0eeba8	-0.5582833
30	0x3dc365ac	0.09540877
31	0xbf0079a7	-0.50185627
32	0xbcd1258e	-0.025530603
33	0xbf0822e8	-0.5317826
34	0xbdb3b00d	-0.087738134
35	0x3e77dc00	0.24205017
36	0xbe430e5e	-0.1904845
37	0xbe0791c8	-0.13239205
38	0x3c346a39	0.011011654
39	0xbe8d4cfa	-0.2759779
40	0xbf1e1064	-0.6174376
41	0x3e233d06	0.15941247
42	0x3e9ec9a4	0.31013215
43	0xbc73b6b3	-0.014875102
44	0xbe949cce	-0.29025882
45	0x3e64c611	0.22341181
46	0xbc81ba73	-0.015835976
47	0xbec2267d	-0.3791999
48	0xbd65268c	-0.055944964
49	0x3d14f000	0.036361694
50	0x3e86b4de	0.26309866
51	0x3d1b592e	0.037926845
52	0x3dbde66e	0.092724666
53	0xbe27013e	-0.16309068
54	0xbe011a0d	-0.12607594
55	0x3df75095	0.12075917
56	0x3e85a9b0	0.26106024
57	0x3da8e390	0.08246529
58	0xb9fbb04e	-0.00048005808
59	0xbf0bf9d3	-0.54678077
60	0xbe9d88d0	-0.30768442
61	0xbe8b7d2a	-0.2724393
62	0x3c1836d9	0.00929042
63	0xbe74afaf	-0.23895143
64	0xbef55a80	-0.4792061
65	0xbe7d7723	-0.24752478
66	0xbd05e8ce	-0.032692723
67	0xbdfc5d38	-0.123224676
68	0xbe94b1af	-0.29041812
69	0x3e2a3278	0.16620815
70	0xbd3070c5	-0.043076295
71	0xbe992045	-0.29907432
72	0xbe5cb5b6	-0.21553692
73	0xbdab4014	-0.08361831
74	0xbeb6dd5b	-0.35715756
75	0xbe8278ea	-0.25482875
76	0x3db8812b	0.09009012
77	0xbc82ef7f	-0.015983341
78	0x3e9c2f7a	0.30504972
79	0x3e28253a	0.16420451
80	0x3e153279	0.14570035
81	0xbe10d1bf	-0.14142512
82	0x3cab2126	0.02088983
83	0xbdcbd091	-0.0995189
84	0x3c7fa519	0.015603327
85	0x3d1827a7	0.03714719
86	0xbd906ded	-0.07052217
87	0xbeb059ac	-0.34443414
88	0xbed7bd82	-0.4213677
89	0xbcf9b22d	-0.030480469
90	0x3e85848e	0.26077694
91	0x3c728bee	0.01480387
92	0x3e582438	0.21107566
93	0x3d2e41ec	0.042543337
94	0x3cf8b9d2	0.030362044
95	0x3e97056e	0.2949633
96	0x3e23b428	0.15986693
97	0x3e58ce0b	0.21172349
98	0xbcf48877	-0.029850228
99	0xbdc302ac	-0.09521994
100	0xbeb52800	-0.3538208
101	0x3db4c602	0.088268295
102	0x3e978042	0.2959004
103	0xbdcbf6de	-0.099591956
104	0x3dccc071	0.09997643
105	0x3e0aecc4	0.13566881
106	0x3cba75b1	0.022761198
107	0x39f1a5b0	0.0004609055
108	0x3e111638	0.14168632
109	0xbefd9894	-0.4953047
110	0xbd2bb8da	-0.041924335
111	0xbe8dbba7	-0.2768223
112	0xbe90156d	-0.28141347
113	0xbb57472e	-0.0032848823
114	0x3e3bf398	0.18354642
115	0xbe7eec4e	-0.2489483
116	0xbe1a786f	-0.15085004
117	0x3da668e7	0.08125477
118	0xbed72042	-0.42016798
119	0x3e4cebb2	0.20011786
120	0x3e37b685	0.1794072
121	0x3de979c0	0.11400175
122	0xbe5c4df3	-0.2151411
123	0xbf12ab67	-0.5729279
124	0x3ed519e0	0.41621304
125	0x3e6a957e	0.22908589
126	0xbde5ab67	-0.11214333
127	0x3ee74787	0.4517176
128	0xbe942062	-0.28930956
129	0xbd01056d	-0.031499315
130	0x3d83bad1	0.06432117
131	0x3e560b98	0.2090286
132	0x3d101905	0.03518011
133	0x3cd81b6b	0.026380261
134	0x3eeddb5a	0.46456414
135	0x3dae4eae	0.08511101
136	0x3e408a40	0.18802738
137	0x3e0a2451	0.13490416
138	0xbe2b8d09	-0.1675302
139	0xbde1523f	-0.11002015
140	0x3ebd0cdc	0.36923873
141	0x3eb591eb	0.3546289
142	0xbe6b60cc	-0.22986144
143	0x3ca0a4e2	0.019609872
144	0x3d002b6c	0.03129141
145	0xbe4cbdd5	-0.1999429
146	0xbea778be	-0.32709306
147	0x3c3691c6	0.0111431535
148	0x3deba29c	0.11505625
149	0xbd74a96d	-0.05973189
150	0xbdba4812	-0.090957776
151	0xbd80b251	-0.06284011
152	0xbc352129	-0.011055269
153	0xbee581a6	-0.44825476
154	0xbea25dc8	-0.31712174
155	0xbe9eb406	-0.30996722
156	0xbe1fba9d	-0.15598531
157	0xbeb15783	-0.3463708
158	0xbe205202	-0.15656283
159	0xbdc536a8	-0.096295655
160	0x3d07dfd2	0.033172436
161	0x3eae29f1	0.34016374
162	0xbc8e46a7	-0.017367674
163	0x3d959130	0.07303083
164	0x3dd7b7b2	0.10533084
165	0x3e4cd7f6	0.20004258
166	0x3ca55ec5	0.020186791
167	0xbda80fb2	-0.08206119
168	0x3ee85a7b	0.4538153
169	0xbe575442	-0.21028236
170	0x3d2c4f52	0.042067833
171	0xbc59edaf	-0.013301297
172	0xbdf8b89a	-0.12144585
173	0x3e271a06	0.16318521
174	0x3d03fde7	0.032224562
175	0xbedd9bce	-0.43282932
176	0xbf3462c2	-0.7046319
177	0xbc977124	-0.018486567
178	0xbe07227c	-0.13196748
179	0xbc248fca	-0.010044048
180	0xbe4c71ca	-0.19965282
181	0xbde5c7a7	-0.11219721
182	0xbb1f598b	-0.0024314846
183	0xbd49a8f5	-0.049233396
184	0x3dab835e	0.08374666
185	0x3d0aa2d2	0.033846684
186	0xbdd018c2	-0.10160972
187	0x3e5cf04f	0.21576045
188	0xbe811e0c	-0.25218236
189	0xbdf46ed6	-0.11935203
190	0x3caa84ce	0.02081528
191	0xbc9105f7	-0.01770304
192	0xbe33bae9	-0.1755177
193	0x3c0ee70b	0.008722077
194	0x3d455634	0.048177913
195	0xbd9bc083	-0.07605078
196	0xbe6fe448	-0.23426926
197	0xbee111d0	-0.43958902
198	0xbd79dbcf	-0.06100064
199	0xbea74890	-0.32672548
200	0x3d61056d	0.054936815
201	0x3e0119e4	0.12607533
202	0xbefee4b4	-0.49783862
203	0x3e267acb	0.1625778
204	0xbd03d825	-0.032188553
205	0xbdadc1cc	-0.084842294
206	0xbe0f5cc8	-0.14000237
207	0x3e3d9561	0.18514015
208	0xbdc93230	-0.09824026
209	0xbdc1a713	-0.09455695
210	0xbca575ea	-0.020197827
211	0xbdfb5dd7	-0.12273758
212	0xbce0b3ec	-0.027429543
213	0x3e88c61c	0.26713645
214	0x3e835917	0.25653908
215	0xbe8f95c8	-0.28043962
216	0xbd8489f7	-0.06471627
217	0xbc111310	-0.0088546425
218	0x3e5dd48c	0.21663111
219	0xbe0b428a	-0.13599601
220	0x3dff9cbb	0.12481066
221	0x3c085cd6	0.008322915
222	0xbedf50b3	-0.43616256
223	0x3e856c17	0.26059029
224	0xbe0dcb3d	-0.1384706
225	0x3c16898a	0.009188065
226	0x3eb156b7	0.3463647
227	0x3e910b44	0.28328907
228	0x3dff1eae	0.124570236
229	0x3eb7ab7e	0.35873026
230	0x3d980736	0.074232504
231	0x3e8b03e4	0.27151406
232	0xbe03a590	-0.12856126
233	0xbd4360ad	-0.04769962
234	0xbf02dc5a	-0.5111748
235	0x3daefe18	0.08544558
236	0x3e46a9ac	0.19400662
237	0x3d5e660a	0.05429653
238	0xbe831354	-0.25600684
239	0x3e48e69b	0.19619219
240	0x3e11f69e	0.14254233
241	0x3dc964e4	0.098336965
242	0xbeb4075f	-0.35161874
243	0xbe1145ae	-0.14186737
244	0x3ec04af8	0.37557197
245	0xbd86031a	-0.0654356
246	0x3def3f21	0.11681963
247	0xbf016bb1	-0.5055495
248	0xbdcbe35f	-0.09955477
249	0x3e1536b0	0.14571643
250	0x3e13557a	0.14388075
251	0x3cdbe101	0.026840689
252	0xbd17dbb8	-0.037074775
253	0xbe41683d	-0.1888742
254	0xbde14f8d	-0.11001501
255	0x3e3efbcd	0.18650742

l2.bias f4 [10]
0	0xbdc871bc	-0.09787318
1	0xbda40635	-0.080089964
2	0xbe230431	-0.15919568
3	0xbe2cee02	-0.16887668
4	0x3e76312a	0.24042192
5	0x3e0bde1f	0.13658951
6	0xbe43c144	-0.19116694
7	0xbd680995	-0.056649763
8	0x3ec870e7	0.39148638
9	0x3ddb5b78	0.10710806
